…
f applicable): type, labeled_type, sublabel_type. scalar coupling constant predict: 1 if need to be predicted else 0. Triplet atom indices: three indices of triplet atoms labels: label, sublabel. bond angle Quadruplet atom indices: four indices of quadruplet atoms labels: label, sublabel, sublabel2, sublabel3, sublabel4. dihedral angle Tokenization Graph Transformer Atom Embedding SineEmbedding TokenFeatureEmbedding HierarchicalEmbedding embeds nn.Embedding nn.Embedding nn.Embedding projs Linear Linear 12345678910111213SineEmbedding( (embedding): HierarchicalEmbedding( (embeds): ModuleList( (0): Embedding(5, 650) (1): Embedding(6, 650) (2): Embedding(12, 650) ) ) (projs): ModuleList( (0): Linear(in_features=650, out_features=650, bias=True) (1): Linear(in_features=650, out_features=650, bias=True) )) layers …( (0): GraphLayer( (dropout): Dropout(p=0.03, inplace=False) (attn_dropout): Dropout(p=0.0, inplace=False) (qkv_net): Linear(in_features=650, out_features=1950, bias=True) (o_net): Linear(in_features=650, out_features=650, bias=False) (norm1): LayerNorm((650,), eps=1e-05, elementwise_affine=True) (norm2): LayerNorm((650,), eps=1e-05, elementwise_affine=True) (proj1): Linear(in_features=650, out_features=3800, bias=True) (proj2): Linear(in_features=3800, out_features=650, bias=True) ) (1): GraphLayer( (dropout): Dropout(p=0.03, inplace=False) (attn_dropout): Dropout(p=0.0, inplace=False) (qkv_net): Linear(in_features=650, out_features=1950, bias=True) (o_net): Linear(in_features=650, out_features=650, bias=False) (norm1): LayerNorm((650,), eps=1e-05, elementwise_affine=True) (norm2): LayerNorm((650,), eps=1e-05, elementwise_affine=True) (proj1): Linear(in_features=650, out_features=3800, bias=True) (proj2): Linear(in_features=3800, out_features=650, bias=True) ) (2): GraphLayer( (dropout): Dropout(p=0.03, inplace=False) (attn_dropout): Dropout(p=0.0, inplace=False) (qkv_net): Linear(in_features=650, out_features=1950, bias=True) (o_net): Linear(in_features=650, out_features=650, bias=False) (norm1): LayerNorm((650,), eps=1e-05, elementwise_affine=True) (norm2): LayerNorm((650,), eps=1e-05, elementwise_affine=True) (proj1): Linear(in_features=650, out_features=3800, bias=True) (proj2): Linear(in_features=3800, out_features=650, bias=True) ) (3): GraphLayer( (dropout): Dropout(p=0.03, inplace=False) (attn_dropout): Dropout(p=0.0, inplace=False) (qkv_net): Linear(in_features=650, out_features=1950, bias=True) (o_net): Linear(in_features=650, out_features=650, bias=False) (norm1): LayerNorm((650,), eps=1e-05, elementwise_affine=True) (norm2): LayerNorm((650,), eps=1e-05, elementwise_affine=True) (proj1): Linear(in_features=650, out_features=3800, bias=True) (proj2): Linear(in_features=3800, out_features=650, bias=True) ) (4): GraphLayer( (dropout): Dropout(p=0.03, inplace=False) (attn_dropout): Dropout(p=0.0, inplace=False) (qkv_net): Linear(in_features=650, out_features=1950, bias=True) (o_net): Linear(in_features=650, out_features=650, bias=False) (norm1): LayerNorm((650,), eps=1e-05, elementwise_affine=True) (norm2): LayerNorm((650,), eps=1e-05, elementwise_affine=True) (proj1): Linear(in_features=650, out_features=3800, bias=True) (proj2): Linear(in_features=3800, out_features=650, bias=True) ) (5): GraphLayer( (dropout): Dropout(p=0.03, inplace=False) (attn_dropout): Dropout(p=0.0, inplace=False) (qkv_net): Linear(in_features=650, out_features=1950, bias=True) (o_net): Linear(in_features=650, out_features=650, bias=False) (norm1): LayerNorm((650,), eps=1e-05, elementwise_affine=True) (norm2): LayerNorm((650,), eps=1e-05, elementwise_affine=True) (proj1): Linear(in_features=650, out_features=3800, bias=True) (proj2): Linear(in_features=3800, out_features=650, bias=True) ) (6): GraphLayer( (dropout): Dropout(p=0.03, inplace=False) (attn_dropout): Dropout(p=0.0, inplace=False) (qkv_net): Linear(in_features=650, out_features=1950, bias=True) (o_net): Linear(in_features=650, out_features=650, bias=False) (norm1): LayerNorm((650,), eps=1e-05, elementwise_affine=True) (norm2): LayerNorm((650,), eps=1e-05, elementwise_affine=True) (proj1): Linear(in_features=650, out_features=3800, bias=True) (proj2): Linear(in_features=3800, out_features=650, bias=True) ) (7): GraphLayer( (dropout): Dropout(p=0.03, inplace=False) (attn_dropout): Dropout(p=0.0, inplace=False) (qkv_net): Linear(in_features=650, out_features=1950, bias=True) (o_net): Linear(in_features=650, out_features=650, bias=False) (norm1): LayerNorm((650,), eps=1e-05, elementwise_affine=True) (norm2): LayerNorm((650,), eps=1e-05, elementwise_affine=True) (proj1): Linear(in_features=650, out_features=3800, bias=True) (proj2): Linear(in_features=3800, out_features=650, bias=True) ) (8): GraphLayer( (dropout): Dropout(p=0.03, inplace=False) (attn_dropout): Dropout(p=0.0, inplace=False) (qkv_net): Linear(in_features=650, out_features=1950, bias=True) (o_net): Linear(in_features=650, out_features=650, bias=False) (norm1): LayerNorm((650,), eps=1e-05, elementwise_affine=True) (norm2): LayerNorm((650,), eps=1e-05, elementwise_affine=True) (proj1): Linear(in_features=650, out_features=3800, bias=True) (proj2): Linear(in_features=3800, out_features=650, bias=True) ) (9): GraphLayer( (dropout): Dropout(p=0.03, inplace=False) (attn_dropout): Dropout(p=0.0, inplace=False) (qkv_net): Linear(in_features=650, out_features=1950, bias=True) (o_net): Linear(in_features=650, out_features=650, bias=False) (norm1): LayerNorm((650,), eps=1e-05, elementwise_affine=True) (norm2): LayerNorm((650,), eps=1e-05, elementwise_affine=True) (proj1): Linear(in_features=650, out_features=3800, bias=True) (proj2): Linear(in_features=3800, out_features=650, bias=True) ) (10): GraphLayer( (dropout): Dropout(p=0.03, inplace=False) (attn_dropout): Dropout(p=0.0, inplace=False) (qkv_net): Linear(in_features=650, out_features=1950, bias=True) (o_net): Linear(in_features=650, out_features=650, bias=False) (norm1): LayerNorm((650,), eps=1e-05, elementwise_affine=True) (norm2): LayerNorm((650,), eps=1e-05, elementwise_affine=True) (proj1): Linear(in_features=650, out_features=3800, bias=True) (proj2): Linear(in_features=3800, out_features=650, bias=True) ) (11): GraphLayer( (dropout): Dropout(p=0.03, inplace=False) (attn_dropout): Dropout(p=0.0, inplace=False) (qkv_net): Linear(in_features=650, out_features=1950, bias=True) (o_net): Linear(in_features=650, out_features=650, bias=False) (norm1): LayerNorm((650,), eps=1e-05, elementwise_affine=True) (norm2): LayerNorm((650,), eps=1e-05, elementwise_affine=True) (proj1): Linear(in_features=650, out_features=3800, bias=True) (proj2): Linear(in_features=3800, out_features=650, bias=True) ) (12): GraphLayer( (dropout): Dropout(p=0.03, inplace=False) (attn_dropout): Dropout(p=0.0, inplace=False) (qkv_net): Linear(in_features=650, out_features=1950, bias=True) (o_net): Linear(in_features=650, out_features=650, bias=False) (norm1): LayerNorm((650,), eps=1e-05, elementwise_affine=True) (norm2): LayerNorm((650,), eps=1e-05, elementwise_affine=True) (proj1): Linear(in_features=650, out_features=3800, bias=True) (proj2): Linear(in_features=3800, out_features=650, bias=True) ) (13): GraphLayer( (dropout): Dropout(p=0.03, inplace=False) (attn_dropout): Dropout(p=0.0, inplace=False) (qkv_net): Linear(in_features=650, out_features=1950, bias=True) (o_net): Linear(in_features=650, out_features=650, bias=False) (norm1): LayerNorm((650,), eps=1e-05, elementwise_affine=True) (norm2): LayerNorm((650,), eps=1e-05, elementwise_affine=True) (proj1): Linear(in_features=650, out_features=3800, bias=True) (proj2): Linear(in_features=3800, out_features=650, bias=True) )) final_norm 1LayerNorm((650,), eps=1e-05, elementwise_affine=True) final_lin1 1Conv1d(650, 12600, kernel_size=(1,), stride=(1,)) …( (atom_embedding): SineEmbedding( (embedding): HierarchicalEmbedding( (embeds): ModuleList( (0): Embedding(5, 650) (1): Embedding(6, 650) (2): Embedding(12, 650) ) ) (projs): ModuleList( (0): Linear(in_features=650, out_features=650, bias=True) (1): Linear(in_features=650, out_features=650, bias=True) ) ) (bond_embedding): SineEmbedding( (embedding): HierarchicalEmbedding( (embeds): ModuleList( (0): Embedding(30, 650) (1): Embedding(46, 650) (2): Embedding(46, 650) ) ) (projs): ModuleList( (0): Linear(in_features=650, out_features=650, bias=True) ) ) (triplet_embedding): SineEmbedding( (embedding): HierarchicalEmbedding( (embeds): ModuleList( (0): Embedding(19, 650) (1): Embedding(51, 650) ) ) (projs): ModuleList( (0): Linear(in_features=650, out_features=650, bias=True) ) ) (quad_embedding): SineEmbedding( (embedding): HierarchicalEmbedding( (embeds): ModuleList( (0): Embedding(25, 650) ) ) (projs): ModuleList( (0): Linear(in_features=650, out_features=650, bias=True) ) ) (layers): ModuleList( (0): GraphLayer( (dropout): Dropout(p=0.03, inplace=False) (attn_dropout): Dropout(p=0.0, inplace=False) (qkv_net): Linear(in_features=650, out_features=1950, bias=True) (o_net): Linear(in_features=650, out_features=650, bias=False) (norm1): LayerNorm((650,), eps=1e-05, elementwise_affine=True) (norm2): LayerNorm((650,), eps=1e-05, elementwise_affine=True) (proj1): Linear(in_features=650, out_features=3800, bias=True) (proj2): Linear(in_features=3800, out_features=650, bias=True) ) (1): GraphLayer( (dropout): Dropout(p=0.03, inplace=False) (attn_dropout): Dropout(p=0.0, inplace=False) (qkv_net): Linear(in_features=650, out_features=1950, bias=True) (o_net): Linear(in_features=650, out_features=650, bias=False) (norm1): LayerNorm((650,), eps=1e-05, elementwise_affine=True) (norm2): LayerNorm((650,), eps=1e-05, elementwise_affine=True) (proj1): Linear(in_features=650, out_features=3800, bias=True) (proj2): Linear(in_features=3800, out_features=650, bias=True) ) (2): GraphLayer( (dropout): Dropout(p=0.03, inplace=False) (attn_dropout): Dropout(p=0.0, inplace=False) (qkv_net): Linear(in_features=650, out_features=1950, bias=True) (o_net): Linear(in_features=650, out_features=650, bias=False) (norm1): LayerNorm((650,), eps=1e-05, elementwise_affine=True) (norm2): LayerNorm((650,), eps=1e-05, elementwise_affine=True) (proj1): Linear(in_features=650, out_features=3800, bias=True) (proj2): Linear(in_features=3800, out_features=650, bias=True) ) (3): GraphLayer( (dropout): Dropout(p=0.03, inplace=False) (attn_dropout): Dropout(p=0.0, inplace=False) (qkv_net): Linear(in_features=650, out_features=1950, bias=True) (o_net): Linear(in_features=650, out_features=650, bias=False) (norm1): LayerNorm((650,), eps=1e-05, elementwise_affine=True) (norm2): LayerNorm((650,), eps=1e-05, elementwise_affine=True) (proj1): Linear(in_features=650, out_features=3800, bias=True) (proj2): Linear(in_features=3800, out_features=650, bias=True) ) (4): GraphLayer( (dropout): Dropout(p=0.03, inplace=False) (attn_dropout): Dropout(p=0.0, inplace=False) (qkv_net): Linear(in_features=650, out_features=1950, bias=True) (o_net): Linear(in_features=650, out_features=650, bias=False) (norm1): LayerNorm((650,), eps=1e-05, elementwise_affine=True) (norm2): LayerNorm((650,), eps=1e-05, elementwise_affine=True) (proj1): Linear(in_features=650, out_features=3800, bias=True) (proj2): Linear(in_features=3800, out_features=650, bias=True) ) (5): GraphLayer( (dropout): Dropout(p=0.03, inplace=False) (attn_dropout): Dropout(p=0.0, inplace=False) (qkv_net): Linear(in_features=650, out_features=1950, bias=True) (o_net): Linear(in_features=650, out_features=650, bias=False) (norm1): LayerNorm((650,), eps=1e-05, elementwise_affine=True) (norm2): LayerNorm((650,), eps=1e-05, elementwise_affine=True) (proj1): Linear(in_features=650, out_features=3800, bias=True) (proj2): Linear(in_features=3800, out_features=650, bias=True) ) (6): GraphLayer( (dropout): Dropout(p=0.03, inplace=False) (attn_dropout): Dropout(p=0.0, inplace=False) (qkv_net): Linear(in_features=650, out_features=1950, bias=True) (o_net): Linear(in_features=650, out_features=650, bias=False) (norm1): LayerNorm((650,), eps=1e-05, elementwise_affine=True) (norm2): LayerNorm((650,), eps=1e-05, elementwise_affine=True) (proj1): Linear(in_features=650, out_features=3800, bias=True) (proj2): Linear(in_features=3800, out_features=650, bias=True) ) (7): GraphLayer( (dropout): Dropout(p=0.03, inplace=False) (attn_dropout): Dropout(p=0.0, inplace=False) (qkv_net): Linear(in_features=650, out_features=1950, bias=True) (o_net): Linear(in_features=650, out_features=650, bias=False) (norm1): LayerNorm((650,), eps=1e-05, elementwise_affine=True) (norm2): LayerNorm((650,), eps=1e-05, elementwise_affine=True) (proj1): Linear(in_features=650, out_features=3800, bias=True) (proj2): Linear(in_features=3800, out_features=650, bias=True) ) (8): GraphLayer( (dropout): Dropout(p=0.03, inplace=False) (attn_dropout): Dropout(p=0.0, inplace=False) (qkv_net): Linear(in_features=650, out_features=1950, bias=True) (o_net): Linear(in_features=650, out_features=650, bias=False) (norm1): LayerNorm((650,), eps=1e-05, elementwise_affine=True) (norm2): LayerNorm((650,), eps=1e-05, elementwise_affine=True) (proj1): Linear(in_features=650, out_features=3800, bias=True) (proj2): Linear(in_features=3800, out_features=650, bias=True) ) (9): GraphLayer( (dropout): Dropout(p=0.03, inplace=False) (attn_dropout): Dropout(p=0.0, inplace=False) (qkv_net): Linear(in_features=650, out_features=1950, bias=True) (o_net): Linear(in_features=650, out_features=650, bias=False) (norm1): LayerNorm((650,), eps=1e-05, elementwise_affine=True) (norm2): LayerNorm((650,), eps=1e-05, elementwise_affine=True) (proj1): Linear(in_features=650, out_features=3800, bias=True) (proj2): Linear(in_features=3800, out_features=650, bias=True) ) (10): GraphLayer( (dropout): Dropout(p=0.03, inplace=False) (attn_dropout): Dropout(p=0.0, inplace=False) (qkv_net): Linear(in_features=650, out_features=1950, bias=True) (o_net): Linear(in_features=650, out_features=650, bias=False) (norm1): LayerNorm((650,), eps=1e-05, elementwise_affine=True) (norm2): LayerNorm((650,), eps=1e-05, elementwise_affine=True) (proj1): Linear(in_features=650, out_features=3800, bias=True) (proj2): Linear(in_features=3800, out_features=650, bias=True) ) (11): GraphLayer( (dropout): Dropout(p=0.03, inplace=False) (attn_dropout): Dropout(p=0.0, inplace=False) (qkv_net): Linear(in_features=650, out_features=1950, bias=True) (o_net): Linear(in_features=650, out_features=650, bias=False) (norm1): LayerNorm((650,), eps=1e-05, elementwise_affine=True) (norm2): LayerNorm((650,), eps=1e-05, elementwise_affine=True) (proj1): Linear(in_features=650, out_features=3800, bias=True) (proj2): Linear(in_features=3800, out_features=650, bias=True) ) (12): GraphLayer( (dropout): Dropout(p=0.03, inplace=False) (attn_dropout): Dropout(p=0.0, inplace=False) (qkv_net): Linear(in_features=650, out_features=1950, bias=True) (o_net): Linear(in_features=650, out_features=650, bias=False) (norm1): LayerNorm((650,), eps=1e-05, elementwise_affine=True) (norm2): LayerNorm((650,), eps=1e-05, elementwise_affine=True) (proj1): Linear(in_features=650, out_features=3800, bias=True) (proj2): Linear(in_features=3800, out_features=650, bias=True) ) (13): GraphLayer( (dropout): Dropout(p=0.03, inplace=False) (attn_dropout): Dropout(p=0.0, inplace=False) (qkv_net): Linear(in_features=650, out_features=1950, bias=True) (o_net): Linear(in_features=650, out_features=650, bias=False) (norm1): LayerNorm((650,), eps=1e-05, elementwise_affine=True) (norm2): LayerNorm((650,), eps=1e-05, elementwise_affine=True) (proj1): Linear(in_features=650, out_features=3800, bias=True) (proj2): Linear(in_features=3800, out_features=650, bias=True) ) ) (final_norm): LayerNorm((650,), eps=1e-05, elementwise_affine=True) (final_lin1): Conv1d(650, 12600, kernel_size=(1,), stride=(1,)) (final_res): Sequential( (0): ResidualBlock( (proj): Sequential( (0): Conv1d(12600, 12600, kernel_size=(1,), stride=(1,), groups=45) (1): ReLU(inplace=True) (2): Dropout(p=0.04, inplace=False) (3): Conv1d(12600, 12600, kernel_size=(1,), stride=(1,), groups=45) (4): Dropout(p=0.04, inplace=False) ) ) (1): Conv1d(12600, 45, kernel_size=(1,), stride=(1,), groups=45) )) Model Architecture Embedding sine filter embedding \\[ d_{\\text{embed}} \\] Graph Transformer Layers Defining Distances Atom As usual, the distance between two atoms \\(a\\) and \\(a^{\\prime}\\) is defined as Euclidean distance between their positions: \\[ d_{\\text{atom},\\text{atom}}(a,a^{\\prime}) = \\|z_{a} - z_{a^{\\prime}}\\|. \\] Bon
…
